pokemon/trained_models/2022-03-08_15_49_59.pt (torch, 892871 bytes, 19 tensors)

0.weight f4 [100, 16, 4, 4]
-0.049148694 0.03682726 0.020746283 -0.05882705 -0.05347942 0.05332583 0.042317275 -0.05140967
-0.050005294 0.023226134 0.009742023 0.00023059547 0.039983794 0.009519033 0.027173094 0.061102264
0.023003891 -0.04700271 0.043094076 -0.0103774145 0.056321874 -0.060352635 -0.054618962 -0.059277736
-0.057019122 0.037951622 -0.06631435 -0.021868475 0.054497205 0.0146570355 -0.008165553 -0.03058339
-0.035485335 0.026199028 -0.05095631 0.057223022 0.012017719 -0.09194173 -0.040062293 0.025526881
-0.032357194 -0.10750396 0.03675674 0.045115277 0.0442513 -0.032366067 0.04912623 0.007111907
0.008451857 0.006308496 -0.04320372 0.0022009388 0.046140224 0.030795913 0.10707272 0.03392169
-0.05528842 0.084638216 0.003664346 -0.041699484 0.012627661 0.029327616 0.03527105 0.021418698
-0.056142464 0.044754088 -0.02775123 -0.010888316 -0.038692027 0.029356508 0.052672956 0.018770702
-0.026365526 0.010930239 0.033611745 -0.028229095 -0.0069980174 -0.057505935 -0.00036770105 -0.058399066
0.016511522 0.051648237 0.020951658 -0.04092013 0.0108343735 -0.05787837 -0.027243683 0.0014749467
-0.030059375 -0.038531244 -0.033395242 0.008019887 0.056150205 -0.034112692 -0.035166234 -0.058937915
0.0071197525 0.058531225 0.003436938 -0.008755237 -0.03696868 0.012575814 -0.027649663 -0.03831435
0.02801048 0.08442737 0.055360995 -0.00048613548 -0.051674075 -0.011419773 -0.008287184 0.021989018
-0.037131645 -0.05206205 0.03938757 0.04049638 -0.014651574 -0.019684369 0.0350837 0.0014546663
-0.016644113 -0.011804194 -0.009081556 -0.00062107295 -0.049087144 0.04961732 0.052502826 0.054057322
-0.010316655 0.055334955 0.020801485 0.039442018 -0.052617095 -0.10490731 -0.086035125 0.041637294
-0.030551046 -0.009994348 0.034757648 0.012790628 0.042565078 0.0022694468 -0.055647194 0.02857048
-0.021762945 0.030493878 -0.014667086 0.015483208 -0.03647293 -0.019224918 0.07512441 0.05776623
0.016581707 -0.032699727 0.072616786 0.008792639 -0.01682479 -0.008223139 -0.011775859 -0.046263047
0.04118602 -0.015330106 -0.05347883 0.016453639 0.028147727 0.037531026 -0.04114478 -0.0023276806
-0.008331388 -0.1206475 -0.031750407 -0.0007127002 0.049051188 0.0053900853 -0.004139714 -0.030545384
-0.022593081 -0.041819327 0.04815781 -0.0005424097 0.006930761 0.004409609 -0.023341935 -0.02354841
0.01426556 -0.027605334 -0.030878955 -0.026440889 0.0031664222 -0.061244518 0.049698748 -0.02394487
0.037196435 -0.053898364 0.047638863 -0.042347297 -0.0026992857 0.014306193 0.0008801273 -0.00031469017
-0.013121672 -0.034473088 -0.05510433 -0.020887643 0.03459674 0.059656344 -0.042809978 0.04516764
0.026478693 0.013919316 0.011286065 0.0048633367 -0.03795056 0.028300598 -0.041503925 0.00037926435
0.06072101 0.105300635 -0.05095384 -0.06047596 -0.005259201 0.00912644 0.0075510293 0.0021561608
0.009330459 0.030438028 0.03429994 -0.012119509 -0.012289129 -0.022909962 -0.035783228 0.054658897
0.062385455 0.07980072 0.012605483 0.05790162 -0.055970766 0.029269636 0.040423952 0.0047804713
0.0478826 0.03450352 -0.015636496 -0.03915842 -0.05375927 -0.0017354578 0.01674149 0.056469716
0.027829163 0.055875182 0.058646973 0.032496266 0.054692797 -0.05271381 0.006270714 -0.034700394
00000000: 2450 49bd 2ed8 163d 1cf4 a93c a2f4 70bd
00000010: 3c0d 5bbd 2f6c 5a3d e154 2d3d f292 52bd
00000020: 5ad2 4cbd bc44 be3c 029d 1f3c 00cc 7139
00000030: 0cc6 233d b8f5 1b3c 1c9a de3c 5e46 7a3d
00000040: a872 bc3c ea85 40bd 6a83 303d 0806 2abc
00000050: c4b1 663d 5334 77bd 22b8 5fbd 36cd 72bd
00000060: e28c 69bd 2973 1b3d d1cf 87bd 8425 b3bc
00000070: 7638 5f3d 1024 703c d0c8 05bc 048a fabc
00000080: 1259 11bd 589f d63c 90b7 50bd b062 6a3d
00000090: f8e5 443c f24b bcbd 5c18 24bd c01d d13c
000000a0: fa88 04bd 092b dcbd 3c8e 163d ccca 383d
000000b0: da40 353d 4892 04bd 9638 493d 000b e93b
000000c0: a879 0a3c 80b7 ce3b 62f6 30bd a03d 103b
000000d0: 88fd 3c3d b647 fc3c f148 db3d 78f1 0a3d
000000e0: 1c76 62bd cd56 ad3d 8625 703b 14cd 2abd
000000f0: 40e4 4e3c 7840 f03c 6078 103d 4476 af3c
00000100: a4f5 65bd 1050 373d 8c56 e3bc e864 32bc
00000110: 887b 1ebd 0f7d f03c 99bf 573d 04c5 993c
00000120: 84fc d7bc bf14 333c 78ac 093d b440 e7bc
00000130: a04f e5bb 588b 6bbd 00c8 c0b9 dc33 6fbd
00000140: 2c43 873c 1a8d 533d d0a2 ab3c de9b 27bd
00000150: a882 313c df11 6dbd 252e dfbc 0053 c13a
00000160: 143f f6bc f0d2 1dbd 73c9 08bd d865 033c
00000170: c2fd 653d c0b9 0bbd 780a 10bd e268 71bd
00000180: d04c e93b 70be 6f3d 403e 613b 2072 0fbc
00000190: 786c 17bd c90a 4e3c 8c81 e2bc 82ef 1cbd
000001a0: 3c76 e53c 42e8 ac3d 36c2 623d 00e0 feb9
000001b0: 32a8 53bd 001a 3bbc f8c6 07bc 5022 b43c
000001c0: 5a17 18bd 043f 55bd dc54 213d 88df 253d
000001d0: 280d 70bc 1d41 a1bc edb3 0f3d 80aa be3a
000001e0: 3c59 88bc 6166 41bc cfca 14bc 80cf 22ba
000001f0: 9a0f 49bd 883b 4b3d 340d 573d 366b 5d3d
00000200: 3007 29bc e8a6 623d e067 aa3c f48d 213d
00000210: 0685 57bd a5d9 d6bd 2f33 b0bd de8b 2a3d
00000220: 3046 fabc 55bf 23bc 095e 0e3d c88f 513c
00000230: b858 2e3d 00bb 143b 50ee 63bd a40c ea3c
00000240: 3448 b2bc 4cce f93c 384e 70bc 48ad 7d3c
00000250: a464 15bd 937d 9dbc d4da 993d 489c 6c3d
00000260: 5cd6 873c 26f0 05bd 1cb8 943d 000f 103c
00000270: 24d4 89bc 58ba 06bc 88ef 40bc 527e 3dbd
00000280: acb2 283d 202b 7bbc 9e0c 5bbd c8c9 863c
00000290: 1096 e63c 22ba 193d 6e87 28bd 008c 18bb
000002a0: 6080 08bc 0916 f7bd b70c 02bd 80d4 3aba
000002b0: e6e9 483d 509f b03b 70a6 87bb 503a fabc
000002c0: 2015 b9bc be4a 2bbd 2041 453d 8030 0eba
000002d0: 701b e33b 7b7e 903b 9637 bfbc 98e8 c0bc
000002e0: 18ba 693c 9524 e2bc ddf5 fcbc 909a d8bc
000002f0: c083 4f3b 88db 7abd ea90 4b3d 0828 c4bc
00000300: 4a5b 183d 88c4 5cbd f820 433d 5c74 2dbd
00000310: 80e6 30bb 8664 6a3c 58b8 663a 00fd a4b9
00000320: 48fc 56bc a733 0dbd 14b5 61bd 901c abbc
00000330: 50b5 0d3d 365a 743d 8459 2fbd b401 393d
00000340: d8e9 d83c d80d 643c 30e9 383c a05c 9f3b
00000350: 0c72 1bbd a8d6 e73c 0500 2abd 00d8 c639
00000360: 98b6 783d dca7 d73d f9b4 50bd a4b5 77bd
00000370: 6055 acbb 1087 153c a06e f73b 604e 0d3b
00000380: c8de 183c 2c59 f93c 187e 0c3d e890 46bc
00000390: 5858 49bc acad bbbc 6f91 12bd 02e2 5f3d
000003a0: e487 7f3d 8f6e a33d 3a87 4e3c 402a 6d3d
000003b0: 9a41 65bd e0c6 ef3c 9693 253d 80a5 9c3b
000003c0: 8c20 443d 9053 0d3d 1c18 80bc 9464 20bd
000003d0: ae32 5cbd 4d78 e3ba 7325 893c ca4c 673d
000003e0: fcf9 e33c 60dd 643d cf37 703d ce1a 053d
000003f0: 8e05 603d 70ea 57bd 907a cd3b 0022 0ebd

1.weight f4 [16, 2, 2]
0.9271648 0.9873689 0.87145114 0.9074982 1.0337992 1.0576267 0.95194924 0.8937886
1.030848 0.9611651 0.9497656 0.9777499 1.0602624 1.0740502 0.9679327 0.9719973
1.00543 1.0675107 0.99843615 0.9939681 0.9233143 1.0782261 0.82665646 1.081588
0.9479704 0.9748538 1.0411438 1.2611034 0.9660059 0.84718865 1.026966 0.9146901
0.8813969 0.9863997 0.84765214 1.0581809 1.0790571 1.2089494 0.7744104 0.89756
0.7946252 1.0039283 0.8493536 1.0685241 0.92263323 1.0144439 1.1877623 0.8939098
1.116024 1.055599 0.79716486 0.8544619 0.95738506 1.1481751 0.98601216 0.9920843
0.8567357 0.9216309 0.8711143 1.033028 1.2147365 0.9689823 0.9240167 1.1442274
00000000: ac5a 6d3f 35c4 7c3f 6c17 5f3f cd51 683f
00000010: 8853 843f 5060 873f f2b2 733f 54cf 643f
00000020: d4f2 833f ea0e 763f d723 733f d14d 7a3f
00000030: aeb6 873f 7a7a 893f 70ca 773f d1d4 783f
00000040: eeb1 803f 31a4 883f 8399 7f3f b274 7e3f
00000050: 535e 6c3f 5003 8a3f c29f 533f 7a71 8a3f
00000060: 30ae 723f 0590 793f 3344 853f d66b a13f
00000070: 2a4c 773f 5be1 583f 9f73 833f 2129 6a3f
00000080: 3aa3 613f b184 7c3f bbff 583f 7972 873f
00000090: 8b1e 8a3f dbbe 9a3f c33f 463f 7ec6 653f
000000a0: 8f6c 4b3f b980 803f 3d6f 593f 66c5 883f
000000b0: b131 6c3f 4cd9 813f 9808 983f 46d7 643f
000000c0: e0d9 8e3f de1d 873f ff12 4c3f 04be 5a3f
000000d0: 3017 753f 67f7 923f 4b6b 7c3f 3df9 7d3f
000000e0: 0853 5b3f 01f0 6b3f 5901 5f3f 433a 843f
000000f0: 7c7c 9b3f 390f 783f 5c8c 6c3f 0b76 923f

1.bias f4 [16, 2, 2]
0.0376257 -0.011887445 -0.04784135 -0.08207218 0.0089029 -0.05856428 0.023222195 -0.07222258
-0.024037777 -0.01804478 0.08842504 -0.096111305 -0.0022006044 -0.0581319 -0.008810227 0.005227167
0.011331816 -0.06758626 0.056677617 0.026243996 -0.054940213 -0.0046583307 -0.03118171 0.018889302
-0.09453381 -0.08056815 0.05189813 0.14097053 -0.0892431 -0.1541105 0.10879176 0.0040002246
-0.042734135 -0.07002013 -0.008908819 0.06150375 0.013993897 0.13845423 -0.015500792 -0.079044454
-0.079459056 0.030863287 0.02609769 -0.04159706 -0.009444889 0.015463595 0.12946214 -0.035114497
0.08613697 -0.082348704 -0.029779041 -0.10035203 -0.029491607 -0.027801173 -0.025965141 -0.015820794
0.0142911635 -0.106209576 -0.033009633 -0.0077293282 0.022444049 0.018413931 -0.05250179 0.04819483
00000000: 681d 1a3d 8fc3 42bc 4bf5 43bd 7615 a8bd
00000010: 78dd 113c 19e1 6fbd 793c be3c 6fe9 93bd
00000020: dfea c4bc a5d2 93bc 3018 b53d 01d6 c4bd
00000030: 0438 10bb b71b 6ebd c558 10bc a848 ab3b
00000040: 15a9 393c aa6a 8abd ca26 683d a6fd d63c
00000050: fd08 61bd e9a4 98bb c970 ffbc bdbd 9a3c
00000060: f19a c1bd ea00 a5bd 2293 543d 945a 103e
00000070: 16c5 b6bd 25cf 1dbe 37ce de3d 5114 833b
00000080: fd09 2fbd b766 8fbd 4cf6 11bc 5beb 7b3d
00000090: a846 653c f2c6 0d3e 09f7 7dbc 0fe2 a1bd
000000a0: 6ebb a2bd 01d5 fc3c d3ca d53c ae61 2abd
000000b0: bcbe 1abc 055b 7d3c b991 043e 38d4 0fbd
000000c0: 9468 b03d 70a6 a8bd 2df3 f3bc 5d85 cdbd
000000d0: 6298 f1bc 49bf e3bc d9b4 d4bc 9c9a 81bc
000000e0: 7c25 6a3c 6884 d9bd 1c35 07bd 4e46 fdbb
000000f0: 95dc b73c d0d8 963c 1e0c 57bd f167 453d

3.weight f4 [16, 16, 4, 4]
-0.02638405 0.023631945 -0.01762902 0.06477681 0.07504288 0.01567797 -0.04006136 -0.032300252
-0.008933103 -0.006481737 0.055571698 0.021913722 -0.01420787 -0.08077482 -0.022342665 0.0035962854
0.066796444 -0.04840267 -0.06485197 -0.0092442045 -0.051513705 0.008215571 -0.047198124 -0.013366274
-0.022029936 -0.02094914 0.013869154 0.0011435829 -0.0041735885 0.008523766 0.039410096 -0.049637485
0.027036928 -0.008974772 -0.053141527 -0.047144532 -0.015127039 0.043682262 0.018024446 0.008448347
-0.0063637113 -0.035999984 -0.11748537 -0.032389533 -0.035284575 -0.010926399 -0.05286164 -0.042617742
-0.07471385 0.10766225 -0.020663876 -0.0035531546 -0.0016915754 0.0035819802 0.028184578 -0.0010266092
0.035803158 -0.035278093 -0.0188357 0.04756925 0.06856949 0.024725571 0.013283259 0.039841216
-0.072846815 -0.04207218 -0.0136453295 0.006229205 0.050716825 -0.08545422 0.002718824 0.043292124
-0.069862835 -0.010816853 -0.044956323 -0.028636439 -0.07157198 -0.035469364 -0.035957456 0.00939658
0.01981818 0.06473648 -0.0053068255 -0.031059116 0.012126896 -0.06718388 0.0800913 -0.01739252
0.0058894577 0.042700216 0.06281283 -0.007925504 0.0088295955 -0.07069053 -0.01823394 -0.05086313
-0.09318145 0.033118617 -0.025639402 -0.00616404 -0.0133576095 -0.03298052 -0.0003139387 0.011780251
0.06611995 0.0040392606 -0.15035869 0.024117423 0.12661889 -0.01858337 0.03523306 -0.08838467
-0.050326377 -0.0054386472 -0.08037008 -0.13798992 -0.030469775 -0.12234491 0.036588714 0.06763292
-0.052458096 0.017653495 -0.0040925336 -0.09351291 0.0343251 -0.048736766 -0.08415548 0.0086643575
0.0018244568 0.028224066 0.0270147 -0.008362811 0.10730951 0.024536679 0.096745655 0.019414952
-0.0042641475 0.07516014 -0.042350557 -0.031966332 -0.002518411 -0.041469473 -0.1104888 -0.0026275702
-0.027827527 0.024396677 0.01064515 -0.06875309 -0.007338259 0.09611834 -0.05592274 -0.031206215
-0.031034226 -0.02784703 -0.06092831 -0.094753824 -0.02009646 0.05596346 -0.12451063 -0.083670095
-0.037639514 0.012684703 -0.009754887 -0.013683542 -0.08185384 0.034200363 -0.044506576 -0.001280182
0.09186913 0.0040623858 0.052685663 -0.0029631422 0.042186484 -0.004945552 -0.00031960846 -0.040627465
0.05195713 -0.025328878 0.0074813636 0.0375306 0.0012127066 -0.07704145 -0.005492171 0.102189906
-0.10531443 -0.015751366 -0.08518821 -0.036131755 -0.033140577 0.064510465 -0.055798057 0.012251148
-0.0020819742 0.039832335 0.07388402 0.032471918 0.047686417 0.0037419698 -0.017170865 -0.0073821237
0.068027355 -0.011540025 0.08823221 0.0663313 0.10119073 -0.02644428 0.0413526 0.041595902
-0.04705577 0.07276768 -0.024195373 0.0062867203 0.02326424 -0.043187756 0.0060816 -0.055696614
-0.02711716 -0.06202705 -0.09269083 0.038526144 0.11023091 0.019705173 -0.049388357 -0.0882096
-0.019650055 0.015831854 -0.03365125 0.0018827999 0.02323557 0.05251513 0.058975574 -0.06339716
-0.06066221 0.04491336 0.028596388 -0.0818814 0.03106214 -0.023991093 -0.07946939 0.025156716
0.10928904 0.03347084 -0.008032964 -0.036033534 -0.06217421 -0.03821637 -0.01662854 0.048829123
-0.051685013 -0.050304502 0.096967824 -0.009633293 0.07271094 -0.03233653 0.026953021 0.010544709
00000000: 5d23 d8bc c897 c13c bc6a 90bc b4a9 843d
00000010: 15b0 993d 166f 803c 6117 24bd 454d 04bd
00000020: 265c 12bc c064 d4bb 269f 633d 6884 b33c
00000030: 20c8 68bc 456d a5bd f707 b7bc a8af 6b3b
00000040: 93cc 883d e141 46bd 1cd1 84bd 0175 17bc
00000050: 0900 53bd 9a9a 063c d252 41bd 37fe 5abc
00000060: 2078 b4bc 889d abbc 733b 633c 46e4 953a
00000070: 99c2 88bb 44a7 0b3c 7b6c 213d ad50 4bbd
00000080: 8c7c dd3c ec0a 13bc eeaa 59bd a01a 41bd
00000090: 66d7 77bc 2cec 323d 01a8 933c f06a 0a3c
000000a0: ae86 d0bb b874 13bd 2b9c f0bd e3aa 04bd
000000b0: 8f86 10bd a404 33bc 7285 58bd f18f 2ebd
000000c0: 9303 99bd 077e dc3d 4a47 a9bc 0bdc 68bb
000000d0: dab7 ddba a8bf 6a3b 58e3 e63c 4a8f 86ba
000000e0: 55a6 123d c37f 10bd 534d 9abc f9d7 423d
000000f0: 296e 8c3d 488d ca3c 07a2 593c 8b30 233d
00000100: b630 95bd e153 2cbd a990 5fbc 5c1e cc3b
00000110: 72bc 4f3d 9f02 afbd 4c2e 323b 1553 313d
00000120: 3f14 8fbd 2b39 31bc 1f24 38bd f796 eabc
00000130: 5594 92bd 5348 11bd 2048 13bd 1df4 193c
00000140: bc59 a23c 8f94 843d e1e4 adbb b06f febc
00000150: e3af 463c b497 89bd e806 a43d c27a 8ebc
00000160: 5afc c03b 6ce6 2e3d 03a4 803d f9d9 01bc
00000170: 02aa 103c 32c6 90bd 585f 95bc db55 50bd
00000180: ebd5 bebd 63a7 073d b909 d2bc b7fb c9bb
00000190: e0d9 5abc 9516 07bd 2498 a4b9 f401 413c
000001a0: e569 873d c65b 843b a1f7 19be e791 c53c
000001b0: 62a8 013e 273c 98bc 8b50 103d 0603 b5bd
000001c0: 0823 4ebd ae36 b2bb 1299 a4bd 3b4d 0dbe
000001d0: c09b f9bc f88f fabd 0cde 153d 2183 8a3d
000001e0: 4dde 56bd 109e 903c a91a 86bb b283 bfbd
000001f0: 7a98 0c3d 34a0 47bd b559 acbd f3f4 0d3c
00000200: 9d22 ef3a 2836 e73c ef4d dd3c 2c04 09bc
00000210: 17c5 db3d 2501 c93c 9622 c63d 1b0c 9f3c
00000220: 43ba 8bbb 8fed 993d c777 2dbd 21ef 02bd
00000230: ed0b 25bb e5db 29bd f447 e2bd 5033 2cbb
00000240: 8ef6 e3bc 8adb c73c ff68 2e3c 6cce 8cbd
00000250: c775 f0bb b1d9 c43d 3e0f 65bd 2da4 ffbc
00000260: 7d3b febc 741f e4bc f78f 79bd 4b0e c2bd
00000270: 55a1 a4bc f139 653d 6eff febd 3a5b abbd
00000280: e42b 1abd 80d3 4f3c f6d2 1fbc ef30 60bc
00000290: fca2 a7bd ae15 0c3d 874c 36bd c8cb a7ba
000002a0: e225 bc3d c31d 853b eccc 573d 4731 42bb
000002b0: bccb 2c3d 4c0e a2bb 1f91 a7b9 fc68 26bd
000002c0: 00d1 543d 827e cfbc 3a26 f53b b0b9 193d
000002d0: aef3 9e3a e8c7 9dbd abf7 b3bb f148 d13d
000002e0: 18af d7bd 0209 81bc 2877 aebd e4fe 13bd
000002f0: 6abe 07bd 101e 843d 818c 64bd 0ab9 483c
00000300: bb71 08bb 3b27 233d 8150 973d 4601 053d
00000310: d552 433d d63b 753b eaa9 8cbc bee5 f1bb
00000320: ed51 8b3d 5f12 3dbc 17b3 b43d b4d8 873d
00000330: 163d cf3d ada1 d8bc 5861 293d 7760 2a3d
00000340: 8dbd 40bd 3907 953d 6035 c6bc d500 ce3b
00000350: a694 be3c a5e5 30bd 2948 c73b 2222 64bd
00000360: ce24 debc 1310 7ebd b1d4 bdbd 97cd 1d3d
00000370: bec0 e13d be6c a13c 724b 4abd 3ca7 b4bd
00000380: 27f9 a0bc ceb1 813c e5d5 09bd 48c8 f63a
00000390: 8658 be3c 1b1a 573d 5f90 713d 5fd6 81bd
000003a0: f078 78bd 12f7 373d f942 ea3c 6fb1 a7bd
000003b0: 0776 fe3c f888 c4bc d9c0 a2bd 7515 ce3c
000003c0: efd2 df3d b818 093d b19c 03bc e697 13bd
000003d0: 62aa 7ebd c588 1cbd 9338 88bc 0c01 483d
000003e0: aab3 53bd 180c 4ebd 1197 c63d f6d4 1dbc
000003f0: 79e9 943d 4f73 04bd 95cc dc3c b7c3 2c3c

4.weight f4 [16, 4, 4]
1.0562874 1.092149 1.0921558 1.0103029 1.0239476 0.8544742 1.0138018 1.0851886
0.93713343 0.8492243 0.97776634 0.8774717 0.71439147 0.85806435 0.96529436 0.9872274
0.8897618 1.0295479 1.1367188 1.0071868 0.8710739 0.92005503 1.0092319 1.0090038
1.1513461 0.8439828 0.75742733 1.0080515 0.9576155 0.89426446 0.88084465 0.9246911
1.1102451 0.8709986 1.0783957 0.98838925 0.8062308 1.1869501 0.84280914 0.9902295
0.91166425 1.0301197 0.8920734 0.8899171 1.0194968 0.68384796 0.9232669 0.98255336
0.80852425 1.0814247 0.8821114 1.0096651 1.0363798 0.9430061 0.8957909 0.93844557
0.9279717 0.97662944 1.1056294 0.8567285 0.85718733 0.9169127 1.0092499 0.9399063
0.91065586 1.073622 1.0004418 1.0369188 1.0091001 1.0032687 0.96792763 0.9137462
0.95260155 0.9863341 0.9162757 1.1743479 1.0120957 0.95298624 1.1104475 1.2710255
1.0694056 1.1342585 1.0299344 1.0099397 1.0320286 0.9200986 0.8647419 1.0522949
0.99315774 0.82623756 0.89470476 1.1149306 1.0056896 1.1359808 0.94881773 1.0006156
1.1058451 0.8531979 0.99463063 0.9880416 0.80200344 1.0771416 1.0680438 1.072867
0.9117358 1.0889983 1.026899 0.98568654 0.9231141 0.9891559 0.9603412 0.930893
1.2147247 1.0237741 0.96429896 1.1168025 0.87477857 1.0231045 0.80483377 0.9518899
1.1048356 0.9583152 1.0588096 0.99123764 0.8794514 0.9494097 1.2081648 1.0738022
1.0687526 1.1387265 1.0168815 1.0789272 0.9765271 0.9841469 0.90993184 0.9886885
0.88906384 1.0089846 0.9434193 1.0868715 0.95209175 0.90044594 0.81424505 0.98262215
1.103717 0.97496694 1.192061 1.0353161 1.0423853 0.88698953 0.89930284 0.9672555
1.1323841 0.77709043 0.8126945 1.3363248 1.1218823 1.1320614 0.9681858 1.1908188
1.0601693 1.0072043 1.1506143 0.82823616 0.9571004 0.91243255 0.97496104 0.71890604
1.0240695 1.1145753 0.8329757 0.83489645 0.8062011 1.1819873 0.992988 0.76861686
0.7689064 1.0747905 1.2729644 0.92857826 0.8868741 1.1150504 1.0728829 1.0363983
1.1167394 1.0617748 0.800891 0.90459365 1.0771886 1.0489334 0.7506333 0.8745753
0.8886007 0.89452255 0.96127146 0.93363464 0.8879445 1.0429413 0.9436942 0.9665142
0.9431311 1.0483458 0.79649633 0.8708226 0.92605746 0.9415576 0.9049195 0.99059016
1.0459311 0.986818 1.1489565 1.108946 1.1059725 1.0691398 0.91158414 0.8932338
0.85718 0.96367383 1.001191 0.8613306 0.8388971 0.9841048 1.017498 1.1721107
0.914785 1.112838 1.1934794 0.9735548 1.0694661 0.9498275 0.9208597 1.0102881
0.6574581 0.7691579 1.1383535 1.0183048 0.89115673 1.0724627 0.9470367 0.997122
0.9717074 0.908617 0.8506262 0.8744528 0.98833203 0.9199677 0.9872045 1.2118247
0.63318586 0.98323137 1.1152072 1.0445684 0.9091787 0.8646325 1.0219976 0.7553242
00000000: 6d34 873f 8acb 8b3f c3cb 8b3f 9b51 813f
00000010: b710 833f d2be 5a3f 42c4 813f 76e7 8a3f
00000020: fae7 6f3f c466 593f e54e 7a3f fca1 603f
00000030: 5ce2 363f 1baa 5b3f 881d 773f efba 7c3f
00000040: 6ec7 633f 3ac8 833f 0080 913f 7feb 803f
00000050: b3fe 5e3f ba88 6b3f 832e 813f 0927 813f
00000060: 4f5f 933f 420f 583f c2e6 413f d507 813f
00000070: 4a26 753f 84ee 643f 097f 613f 8eb8 6c3f
00000080: 831c 8e3f c4f9 5e3f df08 8a3f 1407 7d3f
00000090: 2465 4e3f fbed 973f 57c2 573f ae7f 7d3f
000000a0: d462 693f f6da 833f ec5e 643f 9bd1 633f
000000b0: df7e 823f a910 2f3f 385b 6c3f 9e88 7b3f
000000c0: 72fb 4e3f 206c 8a3f 0dd2 613f b53c 813f
000000d0: 18a8 843f d968 713f 8d52 653f f83d 703f
000000e0: 8e8f 6d3f 6304 7a3f 4485 8d3f 8f52 5b3f
000000f0: a170 5b3f caba 6a3f 1a2f 813f b39d 703f
00000100: be20 693f 726c 893f 7a0e 803f c1b9 843f
00000110: 312a 813f 1c6b 803f 1bca 773f 45eb 693f
00000120: b2dd 733f 6480 7c3f 0b91 6a3f 0851 963f
00000130: 5a8c 813f e8f6 733f 2523 8e3f f7b0 a23f
00000140: 48e2 883f 622f 913f e4d4 833f b445 813f
00000150: 8319 843f 958b 6b3f ba5f 5d3f 99b1 863f
00000160: 963f 7e3f 4e84 533f 5f0b 653f 0cb6 8e3f
00000170: 70ba 803f d267 913f b8e5 723f 2c14 803f
00000180: 558c 8d3f 2d6b 5a3f 1da0 7e3f 4bf0 7c3f
00000190: 1950 4d3f c7df 893f a9b5 883f b553 893f
000001a0: 8467 693f 4c64 8b3f 6d71 833f f455 7c3f
000001b0: 3551 6c3f 5239 7d3f ecd8 753f 014f 6e3f
000001c0: 197c 9b3f 080b 833f 4cdc 763f 62f3 8e3f
000001d0: 7df1 5f3f 17f5 823f 9609 4e3f 0eaf 733f
000001e0: 416b 8d3f 2554 753f 1387 873f c0c1 7d3f
000001f0: ba23 613f 840c 733f 25a5 9a3f 5a72 893f
00000200: e3cc 883f cac1 913f 2c29 823f 491a 8a3f
00000210: aefd 793f 0df1 7b3f 4bf1 683f b11a 7d3f
00000220: b099 633f 6826 813f ed83 713f 9b1e 8b3f
00000230: 49bc 733f a083 663f 5d72 503f 208d 7b3f
00000240: 9946 8d3f 6f97 793f 7495 983f 3d85 843f
00000250: e26c 853f bf11 633f b638 663f 0e9e 773f
00000260: f6f1 903f 66ef 463f bf0c 503f b10c ab3f
00000270: d799 8f3f 63e7 903f 06db 773f c06c 983f
00000280: a1b3 873f 12ec 803f 5447 933f 4907 543f
00000290: 8804 753f 2e95 693f 0c97 793f 3a0a 383f
000002a0: b614 833f 67aa 8e3f e53d 553f c6bb 553f
000002b0: 3263 4e3f 5c4b 973f 7634 7e3f 13c4 443f
000002c0: 0dd7 443f bc92 893f 7ff0 a23f 4eb7 6d3f
000002d0: 2e0a 633f f9b9 8e3f 3a54 893f b3a8 843f
000002e0: 51f1 8e3f 3de8 873f 3107 4d3f 7393 673f
000002f0: 51e1 893f 7343 863f 8129 403f 2be4 5f3f
00000300: 567b 633f 6eff 643f e315 763f ae02 6f3f
00000310: 5550 633f 1a7f 853f f195 713f 7a6d 773f
00000320: 0a71 713f 3230 863f 2fe7 4b3f 3bee 5e3f
00000330: 1a12 6d3f eb09 713f cea8 673f 5197 7d3f
00000340: 12e1 853f 1ba0 7c3f 0211 933f f1f1 8d3f
00000350: 8290 8d3f 93d9 883f 945d 693f f8aa 643f
00000360: 2670 5b3f 54b3 763f 0727 803f 2a80 5c3f
00000370: f6c1 563f 4bee 7b3f 603d 823f b907 963f
00000380: 5a2f 6a3f 7a71 8e3f efc3 983f e33a 793f
00000390: 44e4 883f e527 733f 76bd 6b3f 1f51 813f
000003a0: 2d4f 283f 88e7 443f 91b5 913f d057 823f
000003b0: d922 643f 7546 893f ff70 723f 6343 7f3f
000003c0: d1c1 783f 209b 683f a3c2 593f 24dc 5f3f
000003d0: 5403 7d3f 0183 6b3f 6fb9 7c3f 121d 9b3f
000003e0: 7818 223f 0db5 7b3f 1cbf 8e3f 6bb4 853f
000003f0: efbf 683f 8e58 5d3f d1d0 823f ed5c 413f

4.bias f4 [16, 4, 4]
0.0394916 -0.021866556 -0.016903793 -0.06428408 -0.15987498 -0.0845115 0.07985549 0.018080795
-0.1866138 -0.1029015 -0.0060216296 0.02387725 -0.1058277 -0.06125295 0.05187201 0.07000765
-0.00024969014 0.033398613 0.114479356 -0.013103542 -0.068564646 -0.035388734 0.071292505 0.06191122
0.009920339 -0.12339802 -0.13065389 0.014793187 0.054195065 -0.12561943 -0.047516223 0.04863243
0.09757369 -0.0754744 -0.028143536 -0.1446521 -0.14221741 0.04844799 -0.02583429 -0.09812433
-0.02847005 -0.010170958 -0.036738515 -0.071239635 0.046502315 -0.10741368 -0.04879056 0.12120482
-0.0691936 0.006993949 -0.102542564 0.037788898 0.042989403 0.01760783 -0.030070474 -0.0121531505
0.041897118 0.014832051 0.018324746 0.008741654 0.02448258 -0.1121854 0.0026450779 0.045566197
0.034627642 0.04697136 0.08549706 0.08676409 -0.01931733 -0.07171534 -0.11296505 -0.038699508
0.048923697 -0.037146427 -0.10618733 0.04184235 0.08600826 0.009408651 0.11041543 0.1471728
0.17102958 0.012789668 0.026667371 -0.05185049 0.09325948 -0.1108885 -0.15132923 -0.03991814
0.019230828 -0.1267609 -0.13742457 0.017989958 0.04533677 0.024669506 -0.043209005 -0.010019592
-0.024664575 -0.021733914 -0.05488921 -0.15064457 -0.14889999 -0.029977228 0.03405971 0.113076694
-0.0063783415 0.042082068 0.006333169 -0.030282717 -0.119401395 -0.042610396 0.033300206 -0.07645942
0.22999881 -0.011860465 0.05727144 0.017652519 -0.06345425 -0.13460542 -0.18093212 -0.058211975
0.051315192 -0.11901536 -0.07331188 -0.005272425 -0.025666827 0.04219648 0.09227496 0.18331356
0.17827031 0.055210557 -0.04041076 0.0012845908 0.060729768 -0.041439533 -0.028412879 0.019949766
-0.03187731 -0.13096797 -0.019070342 0.011328464 -0.010885465 -0.12811926 -0.17518882 -0.021977406
0.17909992 0.05014839 0.06658253 0.121185586 0.07403453 -0.05749321 -0.17643915 -0.06268946
0.0801428 -0.06875406 -0.23093544 -0.04071848 0.06459929 0.04805025 0.07595627 0.04629662
0.07164457 0.013985624 0.0033163633 -0.08673324 0.14606716 0.0069849472 -0.03960604 -0.11567611
-0.041159287 0.060503855 -0.12048988 -0.10718097 -0.025924487 0.05526959 0.03561658 -0.10253772
-0.17509015 0.058964163 0.078403175 0.08075527 0.1025458 -0.010400257 0.00074657693 -0.001637394
0.12930466 -0.0343221 -0.1329874 -0.078457385 0.11156413 0.13208176 -0.11682777 -0.131312
-0.13932402 -0.1643535 0.02402552 -0.103222825 -0.08665892 0.11564902 -0.0072543016 0.09564211
-0.04587086 0.07316491 0.0505093 0.08045191 -0.016673313 -0.05675018 0.035749085 0.0677935
0.13512374 0.07677967 0.0658609 0.094071545 0.1256302 -0.044922803 -0.039755136 -0.028362315
-0.095452495 -0.007523691 -0.014327022 -0.09983889 -0.055621468 -0.001449241 0.020210722 0.006859602
-0.034252353 0.0040534157 0.03516935 0.011964826 0.032933347 -0.107891634 -0.109011024 -0.029736029
-0.09101157 -0.13885432 0.0013118678 0.01084057 -0.07140531 0.08137265 -0.03912621 0.12226344
0.06373368 -0.084753335 0.011936012 -0.04514005 -0.023291014 -0.044943996 0.018852822 0.10764273
-0.25909442 -0.07984177 0.07452018 0.066972345 0.00665377 -0.057044134 0.12587838 -0.06181836
00000000: f2c1 213d 7e21 b3bc d379 8abc 5fa7 83bd
00000010: 44b6 23be 5e14 adbd 468b a33d 2d1e 943c
00000020: b017 3fbe 06be d2bd 1751 c5bb 399a c33c
00000030: 31bc d8bd 60e4 7abd bf77 543d 2c60 8f3d
00000040: d8e8 82b9 fccc 083d 2774 ea3d 3db0 56bc
00000050: 9f6b 8cbd c7f3 10bd ce01 923d 9f96 7d3d
00000060: eb88 223c 1ab8 fcbd 22ca 05be 205f 723c
00000070: a5fb 5d3d 61a2 00be 5fa0 42bd cd32 473d
00000080: b7d4 c73d 5292 9abd 468d e6bc ae1f 14be
00000090: 71a1 11be 6671 463d 6fa2 d3bc 69f5 c8bd
000000a0: 063a e9bc 17a4 26bc 207b 16bd 16e6 91bd
000000b0: 3679 3e3d b4fb dbbd 9cd8 47bd 3c3a f83d
000000c0: 60b5 8dbd 7f2d e53b d601 d2bd 88c8 1a3d
000000d0: a815 303d 4c3e 903c 5b56 f6bc 021e 47bc
000000e0: 509c 2b3d 2102 733c c71d 963c 2839 0f3c
000000f0: b18f c83c 76c1 e5bd 0b59 2d3b 9fa3 3a3d
00000100: b7d5 0d3d 0a65 403d 1519 af3d 5fb1 b13d
00000110: 613f 9ebc 7edf 92bd 385a e7bd 6083 1ebd
00000120: 3764 483d da26 18bd be78 d9bd e262 2b3d
00000130: 1925 b03d be26 1a3c 7c21 e23d 77b4 163e
00000140: 6122 2f3e c18b 513c 8875 da3c 2e61 54bd
00000150: d4fe be3d 8319 e3bd 0df6 1abe 3481 23bd
00000160: f889 9d3c 9ccd 01be 07b9 0cbe ad5f 933c
00000170: 0db3 393d b417 ca3c edfb 30bd 3729 24bc
00000180: 5d0d cabc 520b b2bc 82d3 60bd 9242 1abe
00000190: 3d79 18be ce92 f5bc 3282 0b3d c194 e73d
000001a0: 6801 d1bb 3f5e 2c3d 7986 cf3b 7613 f8bc
000001b0: b888 f4bd 3d88 2ebd cc65 083d c296 9cbd
000001c0: cf84 6b3e 6552 42bc 7595 6a3d 049c 903c
000001d0: 4df4 81bd 01d6 09be 4546 39be ae6f 6ebd
000001e0: e12f 523d 53be f3bd 8a24 96bd 4ec4 acbb
000001f0: 3d43 d2bc 37d6 2c3d a7fa bc3d 8db6 3b3e
00000200: 7e8c 363e 7724 623d c185 25bd b75f a83a
00000210: c7bf 783d 80bc 29bd 20c2 e8bc b16d a33c
00000220: c891 02bd 781c 06be 6839 9cbc 069b 393c
00000230: f358 32bc b231 03be b364 33be f609 b4bc
00000240: f865 373e 6668 4d3d 6c5c 883d 2630 f83d
00000250: 6a9f 973d 007e 6bbd 77ac 34be 5563 80bd
00000260: e921 a43d eece 8cbd 577a 6cbe 6cc8 26bd
00000270: a24c 843d 57d0 443d f68e 9b3d 86a1 3d3d
00000280: 63ba 923d f523 653c 5857 593b 32a1 b1bd
00000290: a192 153e fce1 e43b f139 22bd 99e7 ecbd
000002a0: a496 28bd e4d2 773d 66c3 f6bd b281 dbbd
000002b0: 975f d4bc 5e62 623d b1e2 113d 4cff d1bd
000002c0: d54a 33be 6884 713d d891 a03d 0563 a53d
000002d0: 8803 d23d d765 2abc eeb5 433a d39d d6ba
000002e0: 7168 043e 5595 0cbd d92d 08be 44ae a0bd
000002f0: bc7b e43d 7140 073e 6643 efbd a776 06be
00000300: f5aa 0ebe 494c 28be 2bd1 c43c 7d66 d3bd
00000310: 3b7a b1bd 65d9 ec3d 7eb5 edbb 03e0 c33d
00000320: 15e3 3bbd 7cd7 953d d7e2 4e3d f9c3 a43d
00000330: 7996 88bc e072 68bd a26d 123d 52d7 8a3d
00000340: e15d 0a3e a93e 9d3d 14e2 863d 95a8 c03d
00000350: 34a5 003e f900 38bd 48d6 22bd 1658 e8bc
00000360: 997c c3bd 4b89 f6bb e3bb 6abc 5578 ccbd
00000370: 56d3 63bd 75f4 bdba f590 a53c 83c6 e03b
00000380: 324c 0cbd 84d2 843b bd0d 103d 1e08 443c
00000390: 1ee5 063d 4af6 dcbd 2c41 dfbd f998 f3bc
000003a0: 4664 babd d42f 0ebe fbf2 ab3a a59c 313c
000003b0: f23c 92bd b4a6 a63d ce42 20bd 4165 fa3d
000003c0: ce86 823d 2893 adbd 438f 433c c6e4 38bd
000003d0: cccc bebc 3217 38bd 3c71 9a3c cb73 dc3d
000003e0: 06a8 84be 1584 a3bd 099e 983d cc28 893d
000003f0: de07 da3b 1ca7 69bd 43e6 003e 4035 7dbd

6.weight f4 [16, 16, 4, 4]
-0.065175414 0.05737074 0.012757535 -0.05060968 -0.027099889 0.010654964 0.0017688344 -0.06916859
-0.08711512 0.026533077 0.038325626 -0.10504033 -0.061587844 0.037152775 0.059160057 0.039287675
-0.05459902 -0.020156108 -0.014095838 0.05837467 -0.18031925 -0.10120473 -0.06913956 0.11889639
-0.14691015 0.0061978786 -0.025039198 0.057362568 0.018585285 0.027431257 0.02064473 -0.05732507
-0.05843621 -0.048703 0.013955059 0.07225134 0.07823761 -0.062145066 -0.05602957 0.032347605
-0.18066674 0.037997197 -0.017465372 -0.016670894 -0.10541914 -0.11020621 0.008929799 0.04056641
0.06356293 0.0262518 0.05616661 0.08297155 0.087637536 -0.033940665 -0.004928721 0.09062473
0.021476764 0.05180236 0.017721163 0.033488747 0.07794539 0.035439122 -0.013113798 -0.015567044
-0.05676921 -0.067883804 -0.016515436 -0.07039259 -0.03739101 -0.036159344 0.035828684 0.049649548
0.18250297 0.049629595 0.04872878 0.01463375 -0.025721211 0.043214876 0.014384602 -0.026999887
0.06757882 -0.073923685 -0.04015968 -0.06255497 -0.025656786 0.08871014 0.00029315846 -0.077094965
-0.01469485 0.003312048 0.0981449 0.01856808 0.017067518 -0.06307548 0.017189419 0.020298198
0.05141414 0.07077028 -0.0062871175 -0.030766007 -0.0046959594 -0.08532805 -0.14507899 0.05157148
0.017552689 0.042105746 0.04095087 0.0028668144 0.021495966 0.060963493 -0.030269885 -0.046206117
0.09671388 -0.019929131 0.102503605 -0.022035124 -0.025465189 -0.04502983 0.06470796 -0.009003868
-0.032088686 0.009484093 0.083291456 0.017547058 -0.040816084 0.0017859271 0.049661875 0.10417193
-0.0021352684 -9.87281e-05 -0.080478944 -0.07902666 -0.06365549 -0.14079288 -0.09054375 0.060340475
-0.09838354 0.019557634 -0.06644016 -0.09832614 0.0052872025 -0.07335596 -0.031671755 -0.05294641
-0.00027955614 -0.034779772 0.027193297 -0.013777369 -0.031559087 0.07680394 0.01234541 -0.045728255
0.01449355 -0.043682624 -0.071009114 -0.028283658 -0.0016921596 -0.026686251 -0.070447005 0.012340885
0.069367625 0.067242056 0.08075482 0.076012276 -0.0497397 0.038259976 -0.0037974578 0.03216942
-0.017513083 0.027202047 0.06650223 -0.05316263 0.02024522 -0.022218248 0.0028175195 0.013727525
0.02676851 -0.1303888 -0.0018671616 -0.093887836 0.06703053 -0.035415087 -0.023243852 0.03196184
0.020893093 -0.051199593 -0.037613396 -0.024089118 0.033660997 0.04597417 0.033103667 0.02428238
-0.1139076 -0.020509666 -0.00405677 -0.08991563 -0.05927889 -0.10144295 -0.0696427 0.043055877
-0.05148546 -0.12991019 -0.017752869 0.011873999 0.015194043 -0.049857438 0.059473157 -0.04281172
-0.05231293 -0.0399738 0.03151276 -0.010148534 0.050118122 0.0003104063 -0.040944766 -0.090262964
-0.008832644 -0.0054115783 -0.0628187 -0.022942664 -0.05591719 0.0096927965 -0.015033051 0.034925055
-0.03233438 -0.048019815 0.01460735 -0.032851007 0.018687358 -0.07032911 -0.051832702 0.13353331
-0.038725425 -0.102771655 -0.06520019 0.043523967 -0.010188113 -0.082862705 0.036988076 -0.053672075
0.08966789 -0.014642989 0.056021176 -0.008758962 0.0076739583 0.025743058 0.038460612 -0.049569808
-0.08695177 -0.0006073345 -0.014499705 0.02240694 -0.03696414 -0.01050105 -0.012687637 0.027164472
00000000: b07a 85bd 95fd 6a3d fb04 513c 194c 4fbd
00000010: 9600 debc 2892 2e3c 3cd8 e73a 43a8 8dbd
00000020: 6969 b2bd e55b d93c 55fb 1c3d 621f d7bd
00000030: 8943 7cbd 822d 183d d151 723d 1dec 203d
00000040: 39a3 5fbd 6c1e a5bc 3bf2 66bc 471a 6f3d
00000050: 9ca5 38be 6d44 cfbd 0b99 8dbd f37f f33d
00000060: 9d6f 16be 9317 cb3b 011f cdbc 03f5 6a3d
00000070: 2b40 983c 84b7 e03c 231f a93c b1cd 6abd
00000080: cf5a 6fbd cc7c 47bd c3a3 643c 83f8 933d
00000090: 0a3b a03d d38b 7ebd 437f 65bd ec7e 043d
000000a0: b400 39be f3a2 1b3d 8a13 8fbc 6691 88bc
000000b0: fde5 d7bd cbb3 e1bd 4b4e 123c f728 263d
000000c0: 482d 823d 040e d73c f60e 663d fdec a93d
000000d0: 4f7b b33d 5e05 0bbd 1c81 a1bb 7599 b93d
000000e0: 0af0 af3c b62e 543d f92b 913c 7f2b 093d
000000f0: d5a1 9f3d 9d28 113d 41db 56bc ea0c 7fbc
00000100: d586 68bd aa06 8bbd 614b 87bc fd29 90bd
00000110: 5127 19bd d21b 14bd 19c1 123d 535d 4b3d
00000120: 0fe2 3a3e 6748 4b3d d497 473d 65c2 6f3c
00000130: 4ab5 d2bc 1502 313d 65ad 6b3c de2e ddbc
00000140: c466 8a3d 4d65 97bd 7a7e 24bd d21c 80bd
00000150: 2e2e d2bc a9ad b53d 10b3 9939 f7e3 9dbd
00000160: abc2 70bc f20e 593b 3100 c93d 161c 983c
00000170: 2ed1 8b3c b82d 81bd d3d0 8c3c 6848 a63c
00000180: a297 523d 02f0 903d 2a04 cebb fe08 fcbc
00000190: 90e0 99bb 79c0 aebd 968f 14be 9e3c 533d
000001a0: a8ca 8f3c 1377 2c3d 19bc 273d 2ae1 3b3b
000001b0: 4f18 b03c dbb4 793d 8df8 f7bc a042 3dbd
000001c0: ed11 c63d 6b42 a3bc 69ed d13d 0183 b4bc
000001d0: 5f9c d0bc 3371 38bd 9b85 843d f684 13bc
000001e0: 6d6f 03bd 2b63 1b3c b694 aa3d d9be 8f3c
000001f0: c42e 27bd c515 ea3a 406a 4b3d 1858 d53d
00000200: dcef 0bbb 3f0c cfb8 25d2 a4bd bbd8 a1bd
00000210: cf5d 82bd 022c 10be 006f b9bd 9327 773d
00000220: 4f7d c9bd 5537 a03c c711 88bd 375f c9bd
00000230: 4540 ad3b a63b 96bd 3eba 01bd 56de 58bd
00000240: 6491 92b9 3c75 0ebd 7ac4 de3c 79ba 61bc
00000250: 1a44 01bd 624b 9d3d 6744 4a3c 8d4d 3bbd
00000260: 5b76 6d3c 8dec 32bd 3a6d 91bd 21b3 e7bc
00000270: 74cb ddba 209d dabc 8546 90bd 6c31 4a3c
00000280: 9d10 8e3d 34b6 893d c862 a53d 53ac 9b3d
00000290: dbbb 4bbd 7eb6 1c3d c5de 78bb 15c4 033d
000002a0: 9977 8fbc d4d6 de3c 5232 883d 0fc1 59bd
000002b0: 4ed9 a53c 0b03 b6bc 22a6 383b 6ae9 603c
000002c0: a249 db3c a484 05be 8cbb f4ba 4448 c0bd
000002d0: 4d47 893d 690f 11bd e469 bebc 6bea 023d
000002e0: fe27 ab3c aab6 51bd 8110 1abd 8b56 c5bc
000002f0: 1de0 093d 694f 3c3d b697 073d d7eb c63c
00000300: 6348 e9bd e303 a8bc a7ee 84bb b025 b8bd
00000310: 6cce 72bd 52c1 cfbd d5a0 8ebd 5c5b 303d
00000320: 6be2 52bd 2d07 05be 776e 91bc 298b 423c
00000330: 6ff0 783c 5037 4cbd 209a 733d 585b 2fbd
00000340: 1546 56bd 91bb 23bd 8613 013d 0946 26bc
00000350: a948 4d3d 07be a239 b3b5 27bd cadb b8bd
00000360: cbb6 10bc 9c53 b1bb 17a7 80bd 41f2 bbbc
00000370: 6c09 65bd 89ce 1e3c 304d 76bc 930d 0f3d
00000380: 0e71 04bd 6db0 44bd ab53 6f3c c78e 06bd
00000390: 3b16 993c b508 90bd 874e 54bd f5bc 083e
000003a0: 8d9e 1ebd f279 d2bd ad87 85bd 3046 323d
000003b0: 0bec 26bc ecb3 a9bd cf80 173d 40d7 5bbd
000003c0: cca3 b73d 26e9 6fbc 7676 653d c081 0fbc
000003d0: d475 fb3b 1be3 d23c e088 1d3d b609 4bbd
000003e0: c513 b2bd 8735 1fba 2c90 6dbc c28e b73c
000003f0: b667 17bd 990c 2cbc cedf 4fbc 0788 de3c

7.weight f4 [16, 8, 8]
1.0287927 1.012549 1.1277796 0.9470156 0.80012494 0.82686657 1.1735293 1.0288376
0.7772937 1.0094188 1.1183529 0.95190144 0.7902819 1.1146532 0.7988296 1.07098
0.8509956 0.7592993 0.85450894 0.99760956 0.9623473 0.98377883 0.99192286 0.85884464
1.0563463 0.9330184 0.90412617 0.9025303 1.0804036 0.60576415 0.96327823 1.103282
0.8994069 1.0702381 0.7175287 1.0840683 1.0352769 0.8145884 1.108847 0.88681406
0.93095934 0.8242316 0.88547873 0.7187607 0.99666464 0.7249114 1.0426319 1.2794863
0.7634384 0.87518495 1.1942743 0.8277178 0.9677202 0.9344235 0.8487713 0.91710544
0.866639 0.8183602 0.5801454 0.8723924 0.58290243 1.2233535 0.7054377 0.81199336
0.723973 0.97555727 1.0320191 1.1126451 1.251265 1.1138499 0.82656294 0.9921511
1.067029 0.9575853 0.8012967 0.89252454 0.90926903 0.9733481 1.1353053 1.195543
1.2511051 0.8723174 0.8994181 1.12864 0.9539389 0.5080513 1.2186168 0.9246704
1.1209409 0.9676393 0.80122536 1.0848377 0.9333768 0.8272936 1.0111065 1.3033423
1.0593739 1.2447101 1.0514905 0.9395213 0.9200685 0.7023015 1.1410674 1.1344384
1.0396667 0.9572016 1.1432313 0.9955962 0.92503566 1.0840144 1.1207259 1.0725169
1.0923539 1.4669629 0.8303176 0.8631997 0.9101889 1.0874729 1.0599096 1.242122
1.0048728 1.1369263 1.0026304 1.2871003 1.2415813 0.99883723 1.3498539 1.1275382
0.8362825 1.1379019 1.0907378 1.2026126 0.90964115 0.8930009 0.55877644 0.84593356
0.88832074 0.7807737 1.0347422 0.81302226 0.929046 0.6356923 0.9018751 1.0209603
0.99384636 0.97046214 0.92418003 0.848876 0.91197264 0.844838 0.92277724 1.1801404
0.942203 1.2244947 0.87255037 0.98765475 0.98266566 1.0575973 1.1804441 0.9686325
1.1142628 1.1233174 0.8047351 1.0821711 0.99634624 0.62536675 1.0023657 0.75846404
0.95969945 0.79123 1.014147 0.7517436 0.76468873 1.0176833 1.0342503 0.57416046
1.1235702 0.76695985 0.98535734 0.64577436 0.86705756 0.9515996 0.88155574 1.0695332
0.8382616 0.88834196 0.7997762 1.0959202 0.96044886 0.97822124 1.0069916 1.0798419
0.6993555 0.85362536 0.7812498 1.240576 0.8817195 0.8723277 0.8001991 0.82116324
0.66278446 1.0702432 0.80373263 1.0298126 0.97432876 0.8821665 0.9006313 1.3096584
0.93897307 1.152882 1.1178919 1.076774 0.9881133 0.95090634 1.0036216 0.9741901
0.8149829 1.0934395 1.1226438 0.8717916 1.0845293 0.98408926 1.1501652 0.95500267
0.8938595 0.8017775 0.8834333 0.8288455 0.8368125 0.9363246 0.9447952 0.9065395
0.8654447 1.0306985 1.0920798 1.1444569 1.077842 0.93947 0.8290016 0.8685312
0.58774734 1.1294738 1.0034689 1.0731683 1.0229604 0.83327633 1.0131422 0.94155866
0.8751322 0.76380265 0.8806707 1.241723 0.9578366 0.8306845 0.65021753 0.79303604
00000000: 7baf 833f 359b 813f 155b 903f 9d6f 723f
00000010: fdd4 4c3f 87ad 533f 3536 963f f3b0 833f
00000020: b8fc 463f a334 813f 3026 8f3f d0af 733f
00000030: ea4f 4a3f f5ac 8e3f 1980 4c3f df15 893f
00000040: d9da 593f 7061 423f 19c1 5a3f 5763 7f3f
00000050: 655c 763f eed8 7b3f a8ee 7d3f 3edd 5b3f
00000060: 5b36 873f 4bda 6e3f d074 673f 3a0c 673f
00000070: aa4a 8a3f 5c13 1b3f 6799 763f 5838 8d3f
00000080: 883f 663f 90fd 883f f6af 373f c0c2 8a3f
00000090: f483 843f de88 503f b3ee 8d3f 3f06 633f
000000a0: 5a53 6e3f d800 533f bcae 623f b400 383f
000000b0: 6a25 7f3f cb93 393f f674 853f 35c6 a33f
000000c0: b370 433f 1f0c 603f fbdd 983f 50e5 533f
000000d0: 83bc 773f 6136 6f3f 1349 593f 6cc7 6a3f
000000e0: 0edc 5d3f 0e80 513f 6984 143f 1c55 5f3f
000000f0: 1839 153f d996 9c3f 9197 343f ccde 4f3f
00000100: 4b56 393f 1fbe 793f 3419 843f 286b 8e3f
00000110: 7429 a03f a292 8e3f a199 533f 9dfd 7d3f
00000120: 6894 883f 4f24 753f c821 4d3f 7d7c 643f
00000130: dbc5 683f 572d 793f af51 913f 8e07 993f
00000140: 3624 a03f 3150 5f3f 4440 663f 4777 903f
00000150: 5735 743f a60f 023f a3fb 9b3f 33b7 6c3f
00000160: fe7a 8f3f 36b7 773f 1b1d 4d3f f6db 8a3f
00000170: c8f1 6e3f 83c9 533f f06b 813f ecd3 a63f
00000180: 9099 873f a952 9f3f 3e97 863f 7884 703f
00000190: 9c89 6b3f 08ca 333f 7f0e 923f 4735 913f
000001a0: cc13 853f 2a0b 753f 6755 923f 64df 7e3f
000001b0: 23cf 6c3f fcc0 8a3f f273 8f3f 3c48 893f
000001c0: 41d2 8b3f 71c5 bb3f b28f 543f a8fa 5c3f
000001d0: 2402 693f 5032 8b3f 1eab 873f dbfd 9e3f
000001e0: ac9f 803f cd86 913f 3156 803f b4bf a43f
000001f0: 23ec 9e3f ccb3 7f3f 03c8 ac3f 2c53 903f
00000200: 9c16 563f c5a6 913f 4c9d 8b3f 36ef 993f
00000210: 3ede 683f b59b 643f f90b 0f3f 1a8f 583f
00000220: fd68 633f c9e0 473f 6f72 843f 3a22 503f
00000230: f5d5 6d3f bbbc 223f 49e1 663f d4ae 823f
00000240: b76c 7e3f 3570 783f 1097 6c3f f04f 593f
00000250: 0a77 693f 4e47 583f 213b 6c3f d70e 973f
00000260: 3734 713f 3ebc 9c3f 765f 5f3f f1d6 7c3f
00000270: fa8f 7b3f 595f 873f cb18 973f 4df8 773f
00000280: 2aa0 8e3f ddc8 8f3f 1f03 4e3f 9584 8a3f
00000290: 8c10 7f3f 0918 203f 854d 803f b32a 423f
000002a0: ddae 753f 0d8e 4a3f 92cf 813f 4572 403f
000002b0: a4c2 433f 7243 823f 5062 843f 2efc 123f
000002c0: 26d1 8f3f 7b57 443f 6140 7c3f 7851 253f
000002d0: 7cf7 5d3f 089c 733f a3ad 613f 77e6 883f
000002e0: 5098 563f 616a 633f 22be 4c3f 1d47 8c3f
000002f0: fadf 753f b56c 7a3f 1ae5 803f 4238 8a3f
00000300: f608 333f 3187 5a3f fdff 473f 32cb 9e3f
00000310: 5fb8 613f de50 5f3f d9d9 4c3f c137 523f
00000320: 3eac 293f bbfd 883f 6cc1 4d3f e6d0 833f
00000330: 9c6d 793f aad5 613f c68f 663f e3a2 a73f
00000340: 8a60 703f a391 933f 1517 8f3f bbd3 893f
00000350: fef4 7c3f 996e 733f ac76 803f 8664 793f
00000360: b8a2 503f d3f5 8b3f cbb2 8f3f bc2d 5f3f
00000370: dbd1 8a3f 46ed 7b3f 9d38 933f 0e7b 743f
00000380: fad3 643f 4a41 4d3f af28 623f 382f 543f
00000390: 5839 563f f8b2 6f3f 19de 713f f912 683f
000003a0: c98d 5d3f eeed 833f 45c9 8b3f 907d 923f
000003b0: baf6 893f 1b81 703f 7339 543f 1058 5e3f
000003c0: 9c76 163f 9992 903f ab71 803f 945d 893f
000003d0: 5ef0 823f 9951 553f a5ae 813f fd09 713f
000003e0: aa08 603f 9288 433f a373 613f c7f0 9e3f
000003f0: c834 753f bda7 543f a874 263f 6904 4b3f

7.bias f4 [16, 8, 8]
0.07513677 -0.008867477 -0.031075176 -0.11298926 -0.025239792 -0.18568957 0.07709486 0.061218936
0.025090508 -0.057748068 -0.092158854 0.004420635 -0.11466327 0.0108611025 -0.17452829 -0.053036574
0.17365032 -0.114687756 -0.0892193 -0.002749413 -0.091833524 -0.06696891 -0.0059798174 -0.047893845
0.050217208 0.005531395 0.012768457 0.028859306 0.05949137 -0.0798783 -0.009914947 0.04025798
0.03151999 0.037739024 0.05267085 -0.0085593285 0.0034016932 -0.02364463 0.009965586 0.053403407
-0.032416295 -0.021297863 -0.11643655 -0.03972499 -0.05204957 -0.16434969 0.13419223 -0.010728924
-0.21833374 -0.022020122 0.05641078 -0.028691964 0.023446454 -0.1156173 -0.11140051 0.15138921
0.16736814 -0.11585418 -0.17777318 -0.14923172 -0.24950549 0.09946351 -0.00063973846 -0.04045243
-0.057940576 0.210391 0.1286345 0.029373316 0.05778752 0.101833284 0.08060677 -0.035301886
0.10217608 0.11738695 -0.036762983 -0.03872051 -0.027144715 0.022561429 0.20948564 0.1600942
0.13624874 0.006095684 -0.088945866 -0.13937725 -0.107489 -0.2701312 0.0689766 0.13234724
0.085766785 0.028781908 -0.10776501 -0.13730201 -0.023252873 -0.10566442 0.0054358835 0.14601502
0.06509559 0.005494998 -0.071741104 -0.024025658 0.020383196 -0.095342316 -0.035006672 0.021062078
0.07467585 -0.05259697 0.009858895 -0.016855232 -0.034246687 -0.02195117 -0.14525671 0.049774915
0.108341396 0.15699956 -0.09132672 -0.06789741 0.012523169 -0.06662844 0.11352042 0.09146845
0.12164495 0.037840426 -0.04494802 0.006087236 0.072542645 -0.087707005 0.10339891 0.07671004
-0.095616914 0.15795384 0.009792419 -0.060391147 -0.059562843 -0.047821052 -0.11160645 -0.028278843
-0.03022966 0.008800132 -0.040590744 -0.039180137 0.020995758 -0.1694397 -0.035387665 0.028396303
0.106425405 0.029216029 0.07478747 0.13248786 -0.04504876 0.015108813 0.034263853 0.03432926
-0.03978477 0.012139373 0.024777321 -0.18922552 0.034200516 0.025126232 -0.029904386 0.01865428
-3.940323e-05 0.05490041 0.0017093724 -0.007996587 -0.14545706 -0.30382815 -0.025387328 -0.3011884
-0.037231088 -0.013520908 0.027305894 -0.16429743 -0.04161737 -0.0448212 -0.043248113 -0.24868014
0.08907484 -0.025192048 -0.17677292 -0.23295754 -0.0080603175 -0.10997111 -0.05037134 0.060879078
0.014447393 -0.08639792 -0.14888602 -0.12666602 0.103614934 -0.08471869 -0.10616541 0.090407595
-0.26865885 -0.08487469 -0.06445882 0.18168136 0.033308856 0.05514012 -0.19865683 0.020787459
-0.16188699 0.004469288 -0.018148622 0.0025206504 0.06734847 0.021399312 0.14055125 0.14928333
-0.063544564 0.07314061 0.090321764 0.08234325 0.0685513 -0.05820889 -0.107249826 -0.003748395
-0.2511905 -0.012418872 0.024460718 -0.13186345 0.07989329 -0.04820813 0.10312652 -0.13356888
0.06309392 -0.11633081 -0.021384608 0.022531599 -0.2181314 0.11609693 -0.009144471 0.048113454
0.050362036 -0.0637289 -0.09102027 0.24069029 0.15551622 0.215092 -0.075234964 -0.01795353
-0.11137423 -0.053296827 0.055273063 0.1711951 0.0428855 0.04859424 0.1497773 0.07910393
-0.014528256 -0.007812634 -0.0747016 0.078353524 -0.08255165 -0.03377039 -0.17526484 -0.16668077
00000000: 4fe1 993d e548 11bc 5e91 febc ea66 e7bd
00000010: aec3 cebc 6825 3ebe e9e3 9d3d b5c0 7a3d
00000020: 9c8a cd3c 3d89 6cbd c8bd bcbd f9da 903b
00000030: 94d4 eabd c4f2 313c 8bb7 32be e13c 59bd
00000040: 64d1 313e 6ae1 eabd 9cb8 b6bd 7f2f 34bb
00000050: 3713 bcbd ff26 89bd 58f2 c3bb 562c 44bd
00000060: 8fb0 4d3d b440 b53b ca32 513c 5a6a ec3c
00000070: 39ad 733d 3c97 a3bd 4d72 22bc 8de5 243d
00000080: 1b1b 013d 3c94 1a3d 64bd 573d 6d3c 0cbc
00000090: f1ee 5e3b 62b2 c1bc b246 233c 88bd 5a3d
000000a0: f3c6 04bd db78 aebc 4976 eebd acb6 22bd
000000b0: ee31 55bd 494b 28be b069 093e 5ec8 2fbc
000000c0: e192 5fbe 8b63 b4bc fd0e 673d 690b ebbc
000000d0: c712 c03c c3c8 ecbd f325 e4bd c605 1b3e
000000e0: 8e62 2b3e f544 edbd 2c0a 36be 33d0 18be
000000f0: 5e7e 7fbe 86b3 cb3d 1fb4 27ba 72b1 25bd
00000100: 1953 6dbd bd70 573e c3b8 033e 4fa0 f03c
00000110: 9bb2 6c3d f88d d03d 2a15 a53d b698 10bd
00000120: b141 d13d 9268 f03d c894 16bd 6699 1ebd
00000130: 985e debc bfd2 b83c 6783 563e bcef 233e
00000140: ca84 0b3e 4ebe c73b 4029 b6bd e9b8 0ebe
00000150: 3123 dcbd a34e 8abe 9b43 8d3d 0986 073e
00000160: 7fa6 af3d 09c8 eb3c e7b3 dcbd e698 0cbe
00000170: cf7c bebc 9666 d8bd 7f1f b23b f684 153e
00000180: d650 853d 620f b43b 00ed 92bd 75d1 c4bc
00000190: a9fa a63c d542 c3bd 2863 0fbd 618a ac3c
000001a0: a7ef 983d ec6f 57bd 3487 213c fc13 8abc
000001b0: 4146 0cbd f1d2 b3bc 2dbe 14be c8e0 4b3d
000001c0: 18e2 dd3d 7ec4 203e 8109 bbbd cc0d 8bbd
000001d0: fa2d 4d3c 7e74 88bd 657d e83d d053 bb3d
000001e0: fd20 f93d 90fe 1a3d 6a1b 38bd 7077 c73b
000001f0: 3d91 943d bb9f b3bd cfc2 d33d 271a 9d3d
00000200: cdd2 c3bd a7be 213e 6270 203c b55c 77bd
00000210: 2bf8 73bd 02e0 43bd ec91 e4bd 08a9 e7bc
00000220: 31a4 f7bc 6e2e 103c 7b42 26bd 5a7b 20bd
00000230: 4cff ab3c 9a81 2dbe a8f2 10bd 5d9f e83c
00000240: 90f5 d93d 7456 ef3c 2c2a 993d e6aa 073e
00000250: 0c85 38bd f48a 773c 4158 0c3d d79c 0c3d
00000260: 5bf5 22bd 39e4 463c cff9 ca3c 56c4 41be
00000270: d715 0c3d 87d5 cd3c 0bfa f4bc dcd0 983c
00000280: e544 25b8 41df 603d 050d e03a 1e04 03bc
00000290: b2f2 14be 5d8f 9bbe 16f9 cfbc 5e35 9abe
000002a0: a07f 18bd cc86 5dbc 9cb0 df3c 963d 28be
000002b0: fa76 2abd 6f96 37bd ef24 31bd 02a6 7ebe
000002c0: df6c b63d 8e5f cebc f603 35be 6c8c 6ebe
000002d0: 6c0f 04bc 8938 e1bd 2e52 4ebd 575c 793d
000002e0: c2b4 6c3c 65f1 b0bd 9475 18be bdb4 01be
000002f0: 1134 d43d fe80 adbd 406d d9bd 9e27 b93d
00000300: a78d 89be c8d2 adbd fc02 84bd ae0a 3a3e
00000310: de6e 083d 9bda 613d b26c 4bbe 764a aa3c
00000320: b4c5 25be 1b73 923b 6bac 94bc 7f31 253b
00000330: ffed 893d 9c4d af3c abec 0f3e bbdd 183e
00000340: a723 82bd beca 953d 9efa b83d 94a3 a83d
00000350: a064 8c3d 726c 6ebd cca5 dbbd a2a7 75bb
00000360: 0b9c 80be 8678 4bbc d861 c83c 3607 07be
00000370: 189f a33d e375 45bd ff33 d33d 48c6 08be
00000380: 6337 813d d93e eebd c62e afbc 3094 b83c
00000390: d65d 5fbe 3ac4 ed3d b1d2 15bc 9d12 453d
000003a0: 6c48 4e3d 4c84 82bd d668 babd 8477 763e
000003b0: a53f 1f3e 1441 5c3e ca14 9abd 4813 93bc
000003c0: 2c18 e4bd c64d 5abd 0266 623d c54d 2f3e
000003d0: b5a8 2f3d c10a 473d 385f 193e 3e01 a23d
000003e0: ec07 6ebc 9000 00bc 27fd 98bd d077 a03d
000003f0: d710 a9bd d252 0abd a078 33be 5dae 2abe
